…
KerasTensor(type_spec=TensorSpec(shape=(4,), dtype=tf.int32, name=None), inferred_value=[None, 8, 8, 48], name='tf.compat.v1.shape_1/Shape:0', description="created by layer 'tf.compat.v1.shape_1'")
Domain_Regressor_FullyConnected -  output neurons: 3
D_out_shape: (3,)
Encoder: 
Model: "deeplabv3plus_encoder"
__________________________________________________________________________________________________
 Layer (type)                   Output Shape         Param #     Connected to                     
==================================================================================================
 input_1 (InputLayer)           [(None, 64, 64, 14)  0           []                               
                                ]                                                                 
                                                                                                  
 conv2d (Conv2D)                (None, 32, 32, 32)   4064        ['input_1[0][0]']                
                                                                                                  
 batch_normalization (BatchNorm  (None, 32, 32, 32)  128         ['conv2d[0][0]']                 
 alization)                                                                                       
                                                                                                  
 activation (Activation)        (None, 32, 32, 32)   0           ['batch_normalization[0][0]']    
                                                                                                  
 conv2d_1 (Conv2D)              (None, 32, 32, 64)   18496       ['activation[0][0]']             
                                                                                                  
 batch_normalization_1 (BatchNo  (None, 32, 32, 64)  256         ['conv2d_1[0][0]']               
 rmalization)                                                                                     
                                                                                                  
 activation_1 (Activation)      (None, 32, 32, 64)   0           ['batch_normalization_1[0][0]']  
                                                                                                  
 separable_conv2d (SeparableCon  (None, 32, 32, 128)  8896       ['activation_1[0][0]']           
 v2D)                                                                                             
                                                                                                  
 batch_normalization_2 (BatchNo  (None, 32, 32, 128)  512        ['separable_conv2d[0][0]']       
 rmalization)                                                                                     
                                                                                                  
 activation_2 (Activation)      (None, 32, 32, 128)  0           ['batch_normalization_2[0][0]']  
                                                                                                  
 separable_conv2d_1 (SeparableC  (None, 32, 32, 128)  17664      ['activation_2[0][0]']           
 onv2D)                                                                                           
                                                                                                  
 conv2d_2 (Conv2D)              (None, 16, 16, 128)  8320        ['activation_1[0][0]']           
                                                                                                  
 batch_normalization_3 (BatchNo  (None, 32, 32, 128)  512        ['separable_conv2d_1[0][0]']     
 rmalization)                                                                                     
                                                                                                  
 batch_normalization_4 (BatchNo  (None, 16, 16, 128)  512        ['conv2d_2[0][0]']               
 rmalization)                                                                                     
                                                                                                  
 max_pooling2d (MaxPooling2D)   (None, 16, 16, 128)  0           ['batch_normalization_3[0][0]']  
                                                                                                  
 add (Add)                      (None, 16, 16, 128)  0           ['batch_normalization_4[0][0]',  
                                                                  'max_pooling2d[0][0]']          
                                                                                                  
 activation_3 (Activation)      (None, 16, 16, 128)  0           ['add[0][0]']                    
                                                                                                  
 separable_conv2d_2 (SeparableC  (None, 16, 16, 256)  34176      ['activation_3[0][0]']           
 onv2D)                                                                                           
                                                                                                  
 batch_normalization_5 (BatchNo  (None, 16, 16, 256)  1024       ['separable_conv2d_2[0][0]']     
 rmalization)                                                                                     
                                                                                                  
 activation_4 (Activation)      (None, 16, 16, 256)  0           ['batch_normalization_5[0][0]']  
                                                                                                  
 separable_conv2d_3 (SeparableC  (None, 16, 16, 256)  68096      ['activation_4[0][0]']           
 onv2D)                                                                                           
                                                                                                  
 conv2d_3 (Conv2D)              (None, 8, 8, 256)    33024       ['batch_normalization_4[0][0]']  
                                                                                                  
 batch_normalization_6 (BatchNo  (None, 16, 16, 256)  1024       ['separable_conv2d_3[0][0]']     
 rmalization)                                                                                     
                                                                                                  
 batch_normalization_7 (BatchNo  (None, 8, 8, 256)   1024        ['conv2d_3[0][0]']               
 rmalization)                                                                                     
                                                                                                  
 max_pooling2d_1 (MaxPooling2D)  (None, 8, 8, 256)   0           ['batch_normalization_6[0][0]']  
                                                                                                  
 add_1 (Add)                    (None, 8, 8, 256)    0           ['batch_normalization_7[0][0]',  
                                                                  'max_pooling2d_1[0][0]']        
                                                                                                  
 activation_5 (Activation)      (None, 8, 8, 256)    0           ['add_1[0][0]']                  
                                                                                                  
 separable_conv2d_4 (SeparableC  (None, 8, 8, 728)   189400      ['activation_5[0][0]']           
 onv2D)                                                                                           
                                                                                                  
 batch_normalization_8 (BatchNo  (None, 8, 8, 728)   2912        ['separable_conv2d_4[0][0]']     
 rmalization)                                                                                     
                                                                                                  
 activation_6 (Activation)      (None, 8, 8, 728)    0           ['batch_normalization_8[0][0]']  
                                                                                                  
 conv2d_4 (Conv2D)              (None, 8, 8, 728)    187096      ['batch_normalization_7[0][0]']  
                                                                                                  
 separable_conv2d_5 (SeparableC  (None, 8, 8, 728)   537264      ['activation_6[0][0]']           
 onv2D)                                                                                           
                                                                                                  
 batch_normalization_10 (BatchN  (None, 8, 8, 728)   2912        ['conv2d_4[0][0]']               
 ormalization)                                                                                    
                                                                                                  
 batch_normalization_9 (BatchNo  (None, 8, 8, 728)   2912        ['separable_conv2d_5[0][0]']     
 rmalization)                                                                                     
                                                                                                  
 add_2 (Add)                    (None, 8, 8, 728)    0           ['batch_normalization_10[0][0]', 
                                                                  'batch_normalization_9[0][0]']  
                                                                                                  
 activation_7 (Activation)      (None, 8, 8, 728)    0           ['add_2[0][0]']                  
                                                                                                  
 separable_conv2d_6 (SeparableC  (None, 8, 8, 728)   537264      ['activation_7[0][0]']           
 onv2D)                                                                                           
                                                                                                  
 batch_normalization_11 (BatchN  (None, 8, 8, 728)   2912        ['separable_conv2d_6[0][0]']     
 ormalization)                                                                                    
                                                                                                  
 activation_8 (Activation)      (None, 8, 8, 728)    0           ['batch_normalization_11[0][0]'] 
                                                                                                  
 separable_conv2d_7 (SeparableC  (None, 8, 8, 728)   537264      ['activation_8[0][0]']           
 onv2D)                                                                                           
                                                                                                  
 batch_normalization_12 (BatchN  (None, 8, 8, 728)   2912        ['separable_conv2d_7[0][0]']     
 ormalization)                                                                                    
                                                                                                  
 activation_9 (Activation)      (None, 8, 8, 728)    0           ['batch_normalization_12[0][0]'] 
                                                                                                  
 separable_conv2d_8 (SeparableC  (None, 8, 8, 728)   537264      ['activation_9[0][0]']           
 onv2D)                                                                                           
                                                                                                  
 batch_normalization_13 (BatchN  (None, 8, 8, 728)   2912        ['separable_conv2d_8[0][0]']     
 ormalization)                                                                                    
                                                                                                  
 activation_10 (Activation)     (None, 8, 8, 728)    0           ['batch_normalization_13[0][0]'] 
                                                                                                  
 add_3 (Add)                    (None, 8, 8, 728)    0           ['activation_7[0][0]',           
                                                                  'activation_10[0][0]']          
                                                                                                  
 separable_conv2d_9 (SeparableC  (None, 8, 8, 728)   537264      ['add_3[0][0]']                  
 onv2D)                                                                                           
                                                                                                  
 batch_normalization_14 (BatchN  (None, 8, 8, 728)   2912        ['separable_conv2d_9[0][0]']     
 ormalization)                                                                                    
                                                                                                  
 activation_11 (Activation)     (None, 8, 8, 728)    0           ['batch_normalization_14[0][0]'] 
                                                                                                  
 separable_conv2d_10 (Separable  (None, 8, 8, 728)   537264      ['activation_11[0][0]']          
 Conv2D)                                                                                          
                                                                                                  
 batch_normalization_15 (BatchN  (None, 8, 8, 728)   2912        ['separable_conv2d_10[0][0]']    
 ormalization)                                                                                    
                                                                                                  
 activation_12 (Activation)     (None, 8, 8, 728)    0           ['batch_normalization_15[0][0]'] 
                                                                                                  
 separable_conv2d_11 (Separable  (None, 8, 8, 728)   537264      ['activation_12[0][0]']          
 Conv2D)                                                                                          
                                                                                                  
 batch_normalization_16 (BatchN  (None, 8, 8, 728)   2912        ['separable_conv2d_11[0][0]']    
 ormalization)                                                                                    
                                                                                                  
 activation_13 (Activation)     (None, 8, 8, 728)    0           ['batch_normalization_16[0][0]'] 
                                                                                                  
 add_4 (Add)                    (None, 8, 8, 728)    0           ['add_3[0][0]',                  
                                                                  'activation_13[0][0]']          
                                                                                                  
 separable_conv2d_12 (Separable  (None, 8, 8, 728)   537264      ['add_4[0][0]']                  
 Conv2D)                                                                                          
                                                                                                  
 batch_normalization_17 (BatchN  (None, 8, 8, 728)   2912        ['separable_conv2d_12[0][0]']    
 ormalization)                                                                                    
                                                                                                  
 activation_14 (Activation)     (None, 8, 8, 728)    0           ['batch_normalization_17[0][0]'] 
                                                                                                  
 separable_conv2d_13 (Separable  (None, 8, 8, 728)   537264      ['activation_14[0][0]']          
 Conv2D)                                                                                          
                                                                                                  
 batch_normalization_18 (BatchN  (None, 8, 8, 728)   2912        ['separable_conv2d_13[0][0]']    
 ormalization)                                                                                    
                                                                                                  
 activation_15 (Activation)     (None, 8, 8, 728)    0           ['batch_normalization_18[0][0]'] 
                                                                                                  
 separable_conv2d_14 (Separable  (None, 8, 8, 728)   537264      ['activation_15[0][0]']          
 Conv2D)                                                                                          
                                                                                                  
 batch_normalization_19 (BatchN  (None, 8, 8, 728)   2912        ['separable_conv2d_14[0][0]']    
 ormalization)                                                                                    
                                                                                                  
 activation_16 (Activation)     (None, 8, 8, 728)    0           ['batch_normalization_19[0][0]'] 
                                                                                                  
 add_5 (Add)                    (None, 8, 8, 728)    0           ['add_4[0][0]',                  
                                                                  'activation_16[0][0]']          
                                                                                                  
 separable_conv2d_15 (Separable  (None, 8, 8, 728)   537264      ['add_5[0][0]']                  
 Conv2D)                                                                                          
                                                                                                  
 batch_normalization_20 (BatchN  (None, 8, 8, 728)   2912        ['separable_conv2d_15[0][0]']    
 ormalization)                                                                                    
                                                                                                  
 activation_17 (Activation)     (None, 8, 8, 728)    0           ['batch_normalization_20[0][0]'] 
                                                                                                  
 separable_conv2d_16 (Separable  (None, 8, 8, 728)   537264      ['activation_17[0][0]']          
 Conv2D)                                                                                          
                                                                                                  
 batch_normalization_21 (BatchN  (None, 8, 8, 728)   2912        ['separable_conv2d_16[0][0]']    
 ormalization)                                                                                    
                                                                                                  
 activation_18 (Activation)     (None, 8, 8, 728)    0           ['batch_normalization_21[0][0]'] 
                                                                                                  
 separable_conv2d_17 (Separable  (None, 8, 8, 728)   537264      ['activation_18[0][0]']          
 Conv2D)                                                                                          
                                                                                                  
 batch_normalization_22 (BatchN  (None, 8, 8, 728)   2912        ['separable_conv2d_17[0][0]']    
 ormalization)                                                                                    
                                                                                                  
 activation_19 (Activation)     (None, 8, 8, 728)    0           ['batch_normalization_22[0][0]'] 
                                                                                                  
 add_6 (Add)                    (None, 8, 8, 728)    0           ['add_5[0][0]',                  
                                                                  'activation_19[0][0]']          
                                                                                                  
 separable_conv2d_18 (Separable  (None, 8, 8, 728)   537264      ['add_6[0][0]']                  
 Conv2D)                                                                                          
                                                                                                  
 batch_normalization_23 (BatchN  (None, 8, 8, 728)   2912        ['separable_conv2d_18[0][0]']    
 ormalization)                                                                                    
                                                                                                  
 activation_20 (Activation)     (None, 8, 8, 728)    0           ['batch_normalization_23[0][0]'] 
                                                                                                  
 separable_conv2d_19 (Separable  (None, 8, 8, 728)   537264      ['activation_20[0][0]']          
 Conv2D)                                                                                          
                                                                                                  
 batch_normalization_24 (BatchN  (None, 8, 8, 728)   2912        ['separable_conv2d_19[0][0]']    
 ormalization)                                                                                    
                                                                                                  
 activation_21 (Activation)     (None, 8, 8, 728)    0           ['batch_normalization_24[0][0]'] 
                                                                                                  
 separable_conv2d_20 (Separable  (None, 8, 8, 728)   537264      ['activation_21[0][0]']          
 Conv2D)                                                                                          
                                                                                                  
 batch_normalization_25 (BatchN  (None, 8, 8, 728)   2912        ['separable_conv2d_20[0][0]']    
 ormalization)                                                                                    
                                                                                                  
 activation_22 (Activation)     (None, 8, 8, 728)    0           ['batch_normalization_25[0][0]'] 
                                                                                                  
 add_7 (Add)                    (None, 8, 8, 728)    0           ['add_6[0][0]',                  
                                                                  'activation_22[0][0]']          
                                                                                                  
 separable_conv2d_21 (Separable  (None, 8, 8, 728)   537264      ['add_7[0][0]']                  
 Conv2D)                                                                                          
                                                                                                  
 batch_normalization_26 (BatchN  (None, 8, 8, 728)   2912        ['separable_conv2d_21[0][0]']    
 ormalization)                                                                                    
                                                                                                  
 activation_23 (Activation)     (None, 8, 8, 728)    0           ['batch_normalization_26[0][0]'] 
                                                                                                  
 separable_conv2d_22 (Separable  (None, 8, 8, 728)   537264      ['activation_23[0][0]']          
 Conv2D)                                                                                          
                                                                                                  
 batch_normalization_27 (BatchN  (None, 8, 8, 728)   2912        ['separable_conv2d_22[0][0]']    
 ormalization)                                                                                    
                                                                                                  
 activation_24 (Activation)     (None, 8, 8, 728)    0           ['batch_normalization_27[0][0]'] 
                                                                                                  
 separable_conv2d_23 (Separable  (None, 8, 8, 728)   537264      ['activation_24[0][0]']          
 Conv2D)                                                                                          
                                                                                                  
 batch_normalization_28 (BatchN  (None, 8, 8, 728)   2912        ['separable_conv2d_23[0][0]']    
 ormalization)                                                                                    
                                                                                                  
 activation_25 (Activation)     (None, 8, 8, 728)    0           ['batch_normalization_28[0][0]'] 
                                                                                                  
 add_8 (Add)                    (None, 8, 8, 728)    0           ['add_7[0][0]',                  
                                                                  'activation_25[0][0]']          
                                                                                                  
 separable_conv2d_24 (Separable  (None, 8, 8, 728)   537264      ['add_8[0][0]']                  
 Conv2D)                                                                                          
                                                                                                  
 batch_normalization_29 (BatchN  (None, 8, 8, 728)   2912        ['separable_conv2d_24[0][0]']    
 ormalization)                                                                                    
                                                                                                  
 activation_26 (Activation)     (None, 8, 8, 728)    0           ['batch_normalization_29[0][0]'] 
                                                                                                  
 separable_conv2d_25 (Separable  (None, 8, 8, 728)   537264      ['activation_26[0][0]']          
 Conv2D)                                                                                          
                                                                                                  
 batch_normalization_30 (BatchN  (None, 8, 8, 728)   2912        ['separable_conv2d_25[0][0]']    
 ormalization)                                                                                    
                                                                                                  
 activation_27 (Activation)     (None, 8, 8, 728)    0           ['batch_normalization_30[0][0]'] 
                                                                                                  
 separable_conv2d_26 (Separable  (None, 8, 8, 728)   537264      ['activation_27[0][0]']          
 Conv2D)                                                                                          
                                                                                                  
 batch_normalization_31 (BatchN  (None, 8, 8, 728)   2912        ['separable_conv2d_26[0][0]']    
 ormalization)                                                                                    
                                                                                                  
 activation_28 (Activation)     (None, 8, 8, 728)    0           ['batch_normalization_31[0][0]'] 
                                                                                                  
 add_9 (Add)                    (None, 8, 8, 728)    0           ['add_8[0][0]',                  
                                                                  'activation_28[0][0]']          
                                                                                                  
 separable_conv2d_27 (Separable  (None, 8, 8, 728)   537264      ['add_9[0][0]']                  
 Conv2D)                                                                                          
                                                                                                  
 batch_normalization_32 (BatchN  (None, 8, 8, 728)   2912        ['separable_conv2d_27[0][0]']    
 ormalization)                                                                                    
                                                                                                  
 activation_29 (Activation)     (None, 8, 8, 728)    0           ['batch_normalization_32[0][0]'] 
                                                                                                  
 separable_conv2d_28 (Separable  (None, 8, 8, 728)   537264      ['activation_29[0][0]']          
 Conv2D)                                                                                          
                                                                                                  
 batch_normalization_33 (BatchN  (None, 8, 8, 728)   2912        ['separable_conv2d_28[0][0]']    
 ormalization)                                                                                    
                                                                                                  
 activation_30 (Activation)     (None, 8, 8, 728)    0           ['batch_normalization_33[0][0]'] 
                                                                                                  
 separable_conv2d_29 (Separable  (None, 8, 8, 728)   537264      ['activation_30[0][0]']          
 Conv2D)                                                                                          
                                                                                                  
 batch_normalization_34 (BatchN  (None, 8, 8, 728)   2912        ['separable_conv2d_29[0][0]']    
 ormalization)                                                                                    
                                                                                                  
 activation_31 (Activation)     (None, 8, 8, 728)    0           ['batch_normalization_34[0][0]'] 
                                                                                                  
 add_10 (Add)                   (None, 8, 8, 728)    0           ['add_9[0][0]',                  
                                                                  'activation_31[0][0]']          
                                                                                                  
 activation_32 (Activation)     (None, 8, 8, 728)    0           ['add_10[0][0]']                 
                                                                                                  
 separable_conv2d_30 (Separable  (None, 8, 8, 728)   537264      ['activation_32[0][0]']          
 Conv2D)                                                                                          
                                                                                                  
 batch_normalization_36 (BatchN  (None, 8, 8, 728)   2912        ['separable_conv2d_30[0][0]']    
 ormalization)                                                                                    
                                                                                                  
 activation_33 (Activation)     (None, 8, 8, 728)    0           ['batch_normalization_36[0][0]'] 
                                                                                                  
 conv2d_5 (Conv2D)              (None, 8, 8, 1024)   746496      ['activation_32[0][0]']          
                                                                                                  
 separable_conv2d_31 (Separable  (None, 8, 8, 1024)  753048      ['activation_33[0][0]']          
 Conv2D)                                                                                          
                                                                                                  
 batch_normalization_35 (BatchN  (None, 8, 8, 1024)  4096        ['conv2d_5[0][0]']               
 ormalization)                                                                                    
                                                                                                  
 batch_normalization_37 (BatchN  (None, 8, 8, 1024)  4096        ['separable_conv2d_31[0][0]']    
 ormalization)                                                                                    
                                                                                                  
 add_11 (Add)                   (None, 8, 8, 1024)   0           ['batch_normalization_35[0][0]', 
                                                                  'batch_normalization_37[0][0]'] 
                                                                                                  
 separable_conv2d_32 (Separable  (None, 8, 8, 1536)  1583616     ['add_11[0][0]']                 
 Conv2D)                                                                                          
                                                                                                  
 batch_normalization_38 (BatchN  (None, 8, 8, 1536)  6144        ['separable_conv2d_32[0][0]']    
 ormalization)                                                                                    
                                                                                                  
 activation_34 (Activation)     (None, 8, 8, 1536)   0           ['batch_normalization_38[0][0]'] 
                                                                                                  
 separable_conv2d_33 (Separable  (None, 8, 8, 2048)  3161600     ['activation_34[0][0]']          
 Conv2D)                                                                                          
                                                                                                  
 batch_normalization_39 (BatchN  (None, 8, 8, 2048)  8192        ['separable_conv2d_33[0][0]']    
 ormalization)                                                                                    
                                                                                                  
 global_average_pooling2d (Glob  (None, 1, 1, 2048)  0           ['batch_normalization_39[0][0]'] 
 alAveragePooling2D)                                                                              
                                                                                                  
 conv2d_10 (Conv2D)             (None, 1, 1, 256)    524544      ['global_average_pooling2d[0][0]'
                                                                 ]                                
                                                                                                  
 conv2d_6 (Conv2D)              (None, 8, 8, 256)    524544      ['batch_normalization_39[0][0]'] 
                                                                                                  
 conv2d_7 (Conv2D)              (None, 8, 8, 256)    4718848     ['batch_normalization_39[0][0]'] 
                                                                                                  
 conv2d_8 (Conv2D)              (None, 8, 8, 256)    4718848     ['batch_normalization_39[0][0]'] 
                                                                                                  
 conv2d_9 (Conv2D)              (None, 8, 8, 256)    4718848     ['batch_normalization_39[0][0]'] 
                                                                                                  
 reshape_tensor (ReshapeTensor)  (None, 8, 8, 256)   0           ['conv2d_10[0][0]']              
                                                                                                  
 concatenate (Concatenate)      (None, 8, 8, 1280)   0           ['conv2d_6[0][0]',               
                                                                  'conv2d_7[0][0]',               
                                                                  'conv2d_8[0][0]',               
                                                                  'conv2d_9[0][0]',               
                                                                  'reshape_tensor[0][0]']         
                                                                                                  
 conv2d_11 (Conv2D)             (None, 8, 8, 256)    327936      ['concatenate[0][0]']            
                                                                                                  
==================================================================================================
Total params: 36,425,480
Trainable params: 36,370,952
Non-trainable params: 54,528
__________________________________________________________________________________________________
…
 Layer (type)                   Output Shape         Param #     Connected to                     
==================================================================================================
 input_2 (InputLayer)           [(None, 8, 8, 256)]  0           []                               
                                                                                                  
 input_3 (InputLayer)           [(None, 8, 8, 728)]  0           []                               
                                                                                                  
 reshape_tensor_1 (ReshapeTenso  (None, 8, 8, 256)   0           ['input_2[0][0]']                
 r)                                                                                               
                                                                                                  
 conv2d_12 (Conv2D)             (None, 8, 8, 48)     34992       ['input_3[0][0]']                
                                                                                                  
 concatenate_1 (Concatenate)    (None, 8, 8, 304)    0           ['reshape_tensor_1[0][0]',       
                                                                  'conv2d_12[0][0]']              
                                                                                                  
 conv2d_13 (Conv2D)             (None, 8, 8, 256)    78080       ['concatenate_1[0][0]']          
                                                                                                  
 conv2d_14 (Conv2D)             (None, 8, 8, 256)    65792       ['conv2d_13[0][0]']              
                                                                                                  
 conv2d_15 (Conv2D)             (None, 8, 8, 2)      514         ['conv2d_14[0][0]']              
                                                                                                  
 reshape_tensor_2 (ReshapeTenso  (None, 64, 64, 2)   0           ['conv2d_15[0][0]']              
 r)                                                                                               
                                                                                                  
 softmax (Softmax)              (None, 64, 64, 2)    0           ['reshape_tensor_2[0][0]']       
                                                                                                  
==================================================================================================
Total params: 179,378
Trainable params: 179,378
Non-trainable params: 0
__________________________________________________________________________________________________
Domain_Regressor: 
Model: "discriminator"
_________________________________________________________________
 Layer (type)                Output Shape              Param #   
=================================================================
 input_4 (InputLayer)        [(None, 8, 8, 256)]       0         
                                                                 
 flatten (Flatten)           (None, 16384)             0         
                                                                 
 dense (Dense)               (None, 1024)              16778240  
                                                                 
 batch_normalization_40 (Bat  (None, 1024)             4096      
 chNormalization)                                                
                                                                 
 activation_35 (Activation)  (None, 1024)              0         
                                                                 
 dense_1 (Dense)             (None, 1024)              1049600   
                                                                 
 batch_normalization_41 (Bat  (None, 1024)             4096      
 chNormalization)                                                
                                                                 
 activation_36 (Activation)  (None, 1024)              0         
                                                                 
 dense_2 (Dense)             (None, 3)                 3075      
                                                                 
 softmax_1 (Softmax)         (None, 3)                 0         
                                                                 
=================================================================
Total params: 17,839,107
Trainable params: 17,835,011
Non-trainable params: 4,096
_________________________________________________________________
/home/luizmoura/.conda/envs/tf211env/lib/python3.8/site-packages/numpy/core/fromnumeric.py:2009: VisibleDeprecationWarning: Creating an ndarray from ragged nested sequences (which is a list-or-tuple of lists-or-tuples-or ndarrays with different lengths or shapes) is deprecated. If you meant to do this, you must specify 'dtype=object' when creating the ndarray.
…
 Layer (type)                   Output Shape         Param #     Connected to                     
==================================================================================================
 input_10 (InputLayer)          [(None, 8, 8, 256)]  0           []                               
                                                                                                  
 input_11 (InputLayer)          [(None, 8, 8, 728)]  0           []                               
                                                                                                  
 reshape_tensor_7 (ReshapeTenso  (None, 8, 8, 256)   0           ['input_10[0][0]']               
 r)                                                                                               
                                                                                                  
 conv2d_44 (Conv2D)             (None, 8, 8, 48)     34992       ['input_11[0][0]']               
                                                                                                  
 concatenate_5 (Concatenate)    (None, 8, 8, 304)    0           ['reshape_tensor_7[0][0]',       
                                                                  'conv2d_44[0][0]']              
                                                                                                  
 conv2d_45 (Conv2D)             (None, 8, 8, 256)    78080       ['concatenate_5[0][0]']          
                                                                                                  
 conv2d_46 (Conv2D)             (None, 8, 8, 256)    65792       ['conv2d_45[0][0]']              
                                                                                                  
 conv2d_47 (Conv2D)             (None, 8, 8, 2)      514         ['conv2d_46[0][0]']              
                                                                                                  
 reshape_tensor_8 (ReshapeTenso  (None, 64, 64, 2)   0           ['conv2d_47[0][0]']              
 r)                                                                                               
                                                                                                  
 softmax_4 (Softmax)            (None, 64, 64, 2)    0           ['reshape_tensor_8[0][0]']       
                                                                                                  
==================================================================================================
Total params: 179,378
Trainable params: 179,378
Non-trainable params: 0
__________________________________________________________________________________________________
Domain_Regressor: 
Model: "discriminator"
_________________________________________________________________
 Layer (type)                Output Shape              Param #   
=================================================================
 input_12 (InputLayer)       [(None, 8, 8, 256)]       0         
                                                                 
 flatten_2 (Flatten)         (None, 16384)             0         
                                                                 
 dense_6 (Dense)             (None, 1024)              16778240  
                                                                 
 batch_normalization_124 (Ba  (None, 1024)             4096      
 tchNormalization)                                               
                                                                 
 activation_109 (Activation)  (None, 1024)             0         
                                                                 
 dense_7 (Dense)             (None, 1024)              1049600   
                                                                 
 batch_normalization_125 (Ba  (None, 1024)             4096      
 tchNormalization)                                               
                                                                 
 activation_110 (Activation)  (None, 1024)             0         
                                                                 
 dense_8 (Dense)             (None, 3)                 3075      
                                                                 
 softmax_5 (Softmax)         (None, 3)                 0         
                                                                 
=================================================================
Total params: 17,839,107
Trainable params: 17,835,011
Non-trainable params: 4,096
_________________________________________________________________

/home/luizmoura/.conda/envs/tf211env/lib/python3.8/site-packages/numpy/core/fromnumeric.py:2009: VisibleDeprecationWarning: Creating an ndarray from ragged nested sequences (which is a list-or-tuple of lists-or-tuples-or ndarrays with different lengths or shapes) is deprecated. If you meant to do this, you must specify 'dtype=object' when creating the ndarray.
…
